my_iris_torch_model.pt (torch, 3136 bytes, 6 tensors)

fc1.weight f4 [8, 4]
000000 5c 5a 8a be 48 0d a0 bd c0 5f 66 be c0 6f 8d 3c
       -0.27022064 -0.07815033 -0.22497463 0.0172652
000010 3c 8b 99 be e0 d2 e1 3c e8 0c 0e 3e 00 f9 7f bc
       -0.2998904 0.027566373 0.13872111 -0.015623331
000020 10 ac 56 be 8c b4 4c be 34 02 e6 be 20 ed db bd
       -0.20964074 -0.19990748 -0.44923556 -0.107385874
000030 a0 f7 32 3d ac 84 f2 be 70 59 92 3d 18 fc 24 3e
       0.043693185 -0.47366846 0.07145965 0.16111791
000040 b8 fa 5b be dc 6a b8 be 04 d2 b5 be 64 60 5d 3e
       -0.2148236 -0.36019027 -0.35511792 0.21618801
000050 2d f2 92 3f 8d 3e 86 3f b3 45 41 3e 3f a6 60 be
       1.1480156 1.0487839 0.18874244 -0.21938418
000060 82 a4 86 be 80 12 b7 be 44 26 86 3f 2c be 99 3f
       -0.26297385 -0.35756302 1.0480428 1.2011161
000070 b3 34 d1 bd 26 f7 fa bd 21 51 63 3f f0 df 9b 3f
       -0.1021513 -0.12254171 0.8879567 1.2177715

fc1.bias f4 [8]
000000 28 e5 1e be c6 d4 c7 3e 3a 65 f6 be 70 cb b1 bd
       -0.15517104 0.3902952 -0.48124105 -0.08681381
000010 d0 42 a5 be 86 0b a3 3f 62 9c ed be 01 03 47 bf
       -0.32277536 1.2737892 -0.46408373 -0.7773896

fc2.weight f4 [9, 8]
000000 44 57 91 bd 4e 25 22 3e 10 28 ab 3c 14 05 ce bd
       -0.07096723 0.15834543 0.020893127 -0.10059562
000010 96 6b 36 be 4c 14 de 3c dc 76 1d 3f 78 de 79 3f
       -0.17814478 0.027109288 0.6150949 0.97605085
000020 b2 f1 1b 3e 6a 53 6c be 65 d7 af 3e e4 62 d2 bd
       0.15228918 -0.23078695 0.3434402 -0.10272768
000030 42 16 95 be 8d 44 9b 3c 53 f6 60 bd ed a8 85 be
       -0.29118544 0.018953586 -0.054922413 -0.26105443
000040 fc 46 66 be 64 c9 90 3d fe 2b ad be 66 f3 2d be
       -0.22488016 0.07069662 -0.33822626 -0.1698738
000050 f2 82 3a 3e 16 33 1a 3f 06 ba 63 bf b6 70 e8 be
       0.18214014 0.602342 -0.88955724 -0.45398492
000060 43 38 86 be ac cc 95 bd c5 76 81 3e f0 90 a3 bd
       -0.262148 -0.07314429 0.25285926 -0.07986629
000070 ef d7 a1 3e 4b 5d 90 bd 6d cb 59 3e 1a 4f 9e bd
       0.31610057 -0.07049044 0.21269007 -0.07729931
000080 32 a3 34 3e 56 09 5e 3e 50 60 0c 3e cd 8e 42 be
       0.17640379 0.21683249 0.13708615 -0.18999787
000090 b1 99 90 be bc 3b ac bd 80 e3 43 bb 6c 80 ba 3d
       -0.28242257 -0.08409831 -0.002989024 0.09106526
0000a0 04 50 c6 3d 1e 1a 61 3e 4d 8b 5f be 6e b1 34 3e
       0.096832305 0.21982619 -0.21830483 0.17645809
0000b0 99 32 b1 3e a2 61 6c be 7d 94 ad be c0 e2 39 3d
       0.34608915 -0.23084119 -0.3390235 0.04538226
0000c0 48 53 86 be 3b a1 8f 3e 67 55 a8 be a5 2f ad 3e
       -0.26235414 0.28052697 -0.32877657 0.33825412
0000d0 00 d1 d4 ba dc ad ce bd 61 65 90 3e 85 13 44 be
       -0.0016236603 -0.10091755 0.28202346 -0.19148071
0000e0 4f 92 5a be 52 85 6c 3e 7c 6a e8 3d 97 83 8a 3e
       -0.21344875 0.23097733 0.11348435 0.2705352
0000f0 2a 34 35 3e 53 25 a9 3e b1 67 45 bf 09 3a 34 bf
       0.1769568 0.3303629 -0.77111346 -0.70401055
000100 4d 93 8d 3e d4 3c b3 3d c6 e8 e3 bd 0f db 0b be
       0.27651444 0.087518364 -0.111283824 -0.13657783
000110 8f fc 8c 3e 80 2f 4d bb c8 2c 2e be aa 22 f9 bd
       0.27536437 -0.003130883 -0.1700927 -0.12164815

fc2.bias f4 [9]
000000 d3 4b a1 be 2a 2a 4e be 53 3f 62 3f 7b ea 85 be
       -0.31503162 -0.20133272 0.88377875 -0.26155457
000010 d4 7f 84 3d 08 c5 2e 3d 80 c9 87 3d 4c 3e 20 3f
       0.06469694 0.042668372 0.0663023 0.6259506
000020 7a 36 96 be
       -0.29338437

out.weight f4 [3, 9]
000000 7c ea 3e bf ba ab 96 be 89 3a 39 3f f6 95 b2 be
       -0.74576545 -0.29427892 0.7235494 -0.34880036
000010 1c aa 8f bd d9 e1 89 3e c4 c9 ee 3d 66 48 2e 3f
       -0.07014868 0.2693012 0.116595775 0.6807922
000020 99 4e a0 3e 35 e0 1e 3e bd 27 a9 be bc 01 5b 3f
       0.31309965 0.15515216 -0.3303813 0.8554952
000030 07 51 65 3e b8 9e 65 be b6 2c e8 bd f8 7b 28 3d
       0.2239419 -0.22423828 -0.11336653 0.04113385
000040 48 2b 6e bf 31 47 80 3e 25 66 87 3f 11 79 89 3e
       -0.9303479 0.25054315 1.0578047 0.2685018
000050 e9 a8 9e bf 82 5a 5b be 5f 2f 84 3e 50 3b a2 3d
       -1.2395297 -0.21421245 0.2581739 0.07921469
000060 ba 5d 0e 3e b6 a6 13 bf c6 8b a1 be
       0.13902941 -0.57676256 -0.3155195

out.bias f4 [3]
000000 f9 cf c2 3e 7b c5 61 3f d5 4f a5 be
       0.38049296 0.88191956 -0.3228747
